rnn_mnist.pt (torch, 222181 bytes, 10 tensors)

rnn.weight_ih_l0 f4 [128, 28]
-0.076008864 -0.19043005 -0.16968405 -0.06910725 -0.23460637 -0.18671662 -0.20173584 -0.17234285
-0.26103875 -0.24098687 -0.3183631 -0.3089323 -0.041127015 -0.014107244 -0.027674887 0.15505414
0.16640188 -0.21455556 -0.36752364 -0.37092328 -0.43239865 -0.58198845 -0.28142536 -0.21021456
-0.02844097 0.10230075 0.118537344 0.21971263 -0.16523011 -0.09790738 -0.3018094 -0.27034408
-0.24497941 -0.11173413 -0.045003243 -0.077708565 0.02919902 0.0148773 0.11830342 -0.03646252
-0.04089773 0.025692362 -0.036984883 -0.064220764 -0.042694718 -0.13511677 -0.23939092 -0.11801593
0.042604335 -0.0347896 0.05531518 0.020748222 0.04607162 0.048908778 -0.0366897 -0.032392647
0.10386284 0.122349836 0.22199237 0.19284762 0.05800078 0.118095115 0.017009713 0.07777698
0.12613519 0.016932553 0.018908773 0.04018343 0.1461064 0.15981244 0.089418516 0.09259559
0.037801147 0.219588 0.14088255 -0.031784896 -0.116276965 -0.012324598 -0.06509819 -0.08508059
0.06023987 -0.04749548 0.07220359 0.10313411 -0.079036646 -0.22483125 -0.14536645 -0.09369684
-0.03148513 -0.00208028 -0.09709171 -0.0736623 0.07842869 -0.13514811 0.05118356 -0.0063735647
-0.05307981 0.06082287 0.061901197 0.09660082 0.08259819 0.072551385 -0.16574349 -0.122933075
-0.11994537 0.10145422 0.06380916 0.14150967 0.06853785 0.10597662 -0.11352228 -0.03879425
0.17698103 0.16873778 0.03940469 -0.045181826 -0.1527268 -0.04395403 0.060273822 0.10028987
0.10313622 0.3412764 0.08078342 -0.06425503 0.04626729 0.26592374 0.19443214 0.07109603
0.057609133 -0.12847544 -0.20003407 -0.10211015 -0.081091456 0.14011723 0.15479505 0.050211973
0.13711144 0.0044719717 -0.22009745 -0.036775824 0.01667316 0.017222408 0.270926 0.30789942
0.3443897 0.33891413 0.17793281 0.20785756 0.29187512 0.3016583 0.45036077 0.17013378
0.11349654 -0.01179751 0.016185325 0.15126368 0.15364641 0.26630387 0.25189734 0.44769067
0.16963117 0.081232436 -0.11345886 -0.09880999 0.12683852 0.14151672 0.06535466 0.036677968
0.17641577 0.1340957 0.03980102 0.296883 0.10280002 0.17711593 0.07212255 0.09681169
0.122960836 0.10194079 -0.013820464 -0.094157025 -0.06832202 0.024291199 0.033016913 -0.0033872451
0.176193 0.2468476 0.14896709 0.05570358 -0.057961658 0.08756088 -0.10679578 -0.12549387
-0.10500296 -0.110560656 0.020706562 0.05811783 0.17885242 0.015912827 0.081967585 -0.025909336
-0.002444645 0.077234164 0.24488778 0.1920259 0.16094047 0.059511963 0.116456464 -0.0111395
0.026427649 0.049129374 -0.06118119 -0.06519781 -0.2236566 -0.08701007 -0.008372903 -0.128632
-0.13842593 -0.01802133 0.04594514 0.17860284 0.1409484 -0.12708527 -0.13864963 -0.14767429
-0.11002818 -0.07032925 -0.097583264 -0.39393282 -0.48136356 -0.26323187 -0.4927424 -0.7054832
-0.637756 -0.6723702 -0.6159014 -0.48600563 -0.21777645 -0.27836123 -0.16253312 -0.21272336
-0.33377203 -0.25480893 -0.426415 -0.41794398 -0.514511 -0.37631306 -0.26169613 -0.018367436
-0.21608274 0.049051985 0.0052578994 0.2358947 0.08677208 0.1525156 0.28427473 0.38204834
00000000: 89aa 9bbd 1800 43be a8c1 2dbe 1a88 8dbd
00000010: a73c 70be a432 3fbe d793 4ebe a57a 30be
00000020: dfa6 85be 43c5 76be 7d00 a3be 602c 9ebe
00000030: cd74 28bd 1222 67bc 72b6 e2bc 83c6 1e3e
00000040: 4165 2a3e 74b4 5bbe 0f2c bcbe a8e9 bdbe
00000050: 5b63 ddbe 32fd 14bf fc16 90be 7c42 57be
00000060: 0afd e8bc 0e83 d13d b5c3 f23d 59fc 603e
00000070: 1532 29be aa83 c8bd c386 9abe 8a6a 8abe
00000080: e2db 7abe ddd4 e4bd 5255 38bd ab25 9fbd
00000090: c832 ef3c ebbf 733c 1049 f23d b959 15bd
000000a0: 6184 27bd ca78 d23c 767d 17bd 2d86 83bd
000000b0: a8e0 2ebd 0d5c 0abe e522 75be 56b2 f1bd
000000c0: e281 2e3d 8a7f 0ebd 2c92 623d 2df8 a93c
000000d0: 98b5 3c3d 9254 483d f047 16bd 27ae 04bd
000000e0: 0ab6 d43d 8d92 fa3d f851 633e d979 453e
000000f0: 3a92 6d3d dadb f13d f457 8b3c 8a49 9f3d
00000100: 9529 013e 23b6 8a3c 92e6 9a3c 6197 243d
00000110: eb9c 153e dfa5 233e 0e21 b73d c2a2 bd3d
00000120: 60d5 1a3d addb 603e 8443 103e e130 02bd
00000130: 9e22 eebd 1ced 49bc 3352 85bd bb3e aebd
00000140: 15be 763d 9f8a 42bd 7adf 933d fa37 d33d
00000150: f7dd a1bd 2a3a 66be f1da 14be 21e4 bfbd
00000160: 8df6 00bd 4f55 08bb 05d8 c6bd 43dc 96bd
00000170: 399f a03d 4464 0abe daa5 513d 56d9 d0bb
00000180: 376a 59bd 6721 793d 1c8c 7d3d a7d6 c53d
00000190: 3d29 a93d d295 943d a9b8 29be 56c4 fbbd
000001a0: eba5 f5bd 3bc7 cf3d 60ae 823d e9e7 103e
000001b0: 935d 8c3d 450a d93d 5e7e e8bd b8e6 1ebd
000001c0: 843a 353e 99c9 2c3e d066 213d 9410 39bd
000001d0: 6a64 1cbe 2409 34bd afe1 763d c664 cd3d
000001e0: 1539 d33d c8bb ae3e c771 a53d 2498 83bd
000001f0: c582 3d3d 2827 883e 3819 473e cc9a 913d
00000200: 8ef7 6b3d 118f 03be bbd5 4cbe 201f d1bd
00000210: 4713 a6bd e47a 0f3e 9882 1e3e 12ab 4d3d
00000220: f166 0c3e 9e89 923b 3a61 61be 3fa2 16bd
00000230: 2796 883c 0216 8d3c d0b6 8a3e fea4 9d3e
00000240: d953 b03e 2786 ad3e 0534 363e 9dd8 543e
00000250: a870 953e f572 9a3e b095 e63e 8d37 2e3e
00000260: e070 e83d 584a 41bc 1697 843c dee4 1a3e
00000270: 7c55 1d3e fb58 883e b0f8 803e b637 e53e
00000280: cbb3 2d3e 315d a63d 1e5d e8bd e45c cabd
00000290: f5e1 013e c2e9 103e aad8 853d a33b 163d
000002a0: 56a6 343e 6250 093e 6506 233d 0c01 983e
000002b0: d188 d23d e15d 353e fdb4 933d 3545 c63d
000002c0: e4d2 fb3d 55c6 d03d 3a6f 62bc 66d5 c0bd
000002d0: 6aec 8bbd 56fe c63c be3c 073d 8bfc 5dbb
000002e0: f06b 343e 9ec5 7c3e d48a 183e 7029 643d
000002f0: 3469 6dbd 1e53 b33d bfb7 dabd 7781 00be
00000300: cb0b d7bd a06d e2bd cfa0 a93c f60c 6e3d
00000310: 1725 373e 9e5b 823c 9fde a73d d13f d4bc
00000320: 5636 20bb f22c 9e3d ddc3 7a3e 70a2 443e
00000330: 94cd 243e d1c2 733d ba80 ee3d 7382 36bc
00000340: cc7e d83c e23b 493d 2199 7abd 6e86 85bd
00000350: 3c06 65be 5632 b2bd 802e 09bc 1bb8 03be
00000360: 87bf 0dbe 78a1 93bc f930 3c3d aae3 363e
00000370: c754 103e a422 02be 2bfa 0dbe ee37 17be
00000380: 7456 e1bd c808 90bd bcd9 c7bd 90b1 c9be
00000390: 4975 f6be 54c6 86be bb48 fcbe 8c9a 34bf
000003a0: fa43 23bf 7420 2cbf b7ab 1dbf bbd5 f8be
000003b0: ca00 5fbe 5d85 8ebe 156f 26be 27d4 59be
000003c0: 2be4 aabe 5176 82be 1153 dabe c1fc d5be
000003d0: feb6 03bf 1bac c0be 09fd 85be 4e77 96bc
000003e0: cb44 5dbe bcea 483d 754a ac3b 618e 713e
000003f0: 8fb5 b13d 0d2d 1c3e 758c 913e d79b c33e

rnn.weight_hh_l0 f4 [128, 128]
0.13888171 0.058999617 0.038434595 0.05720284 0.13695061 0.0040858644 -0.14414597 -0.0020606597
0.09164196 -0.047358237 0.024704345 0.14372829 0.036469482 0.027710263 -0.012815285 -0.12988566
-0.08753724 0.1928953 0.031060755 0.025182508 0.13021594 0.027246984 0.0893808 0.07153368
0.14615616 -0.14483215 -0.0373559 -0.20381606 0.13525909 0.07117048 -0.17854843 -0.014730632
-0.072305 0.09164057 0.086050026 -0.10522278 -0.0056125317 -0.15949802 -0.1131902 -0.019509047
0.047962613 0.06570717 0.05458239 -0.11213209 0.08762874 0.05782391 0.017438857 0.18307367
0.26167652 0.04372031 0.25032267 0.15866788 0.27153483 0.047945652 -0.058985077 -0.040367756
-0.072163194 0.12405603 0.0019930862 0.02133892 -0.08299034 0.08250392 0.017377568 -0.2085762
-0.0023126204 0.06365704 -0.09758669 -0.036613863 -0.07756988 0.013758847 0.12406423 0.021284185
-0.09371883 0.32412064 -0.16165942 0.10330367 -0.12805367 -0.100297265 -0.1619203 -0.25253958
0.30183163 0.11610556 0.2788819 -0.007898533 -0.074482955 0.055728655 0.000452957 -0.18603276
-0.08074388 0.119565964 0.044177692 0.0239402 0.15551674 -0.2011892 0.16091625 -0.058708884
-0.013147759 -0.11426554 0.0067625195 0.064816326 0.09380023 -0.08942543 -0.04515674 0.09064174
-0.46165875 -0.085628 0.051007744 -0.052766375 0.1331611 -0.185954 -0.037494484 -0.036621027
0.3581563 -0.07332429 0.02181784 0.129694 -0.21066295 0.012091259 0.47447097 -0.13296433
0.0037482353 0.16287568 0.019513287 -0.101212636 -0.047835216 -0.13926496 0.10049241 -0.19628604
0.012553115 0.055750765 0.04654113 0.1567231 0.08869317 -0.11193026 -0.06794509 0.05076622
-0.065949775 -0.17358136 -0.13426645 0.20087415 0.0115327705 0.029760003 0.027965687 -0.070304535
-0.07760076 0.019346904 -0.034286663 -0.05213218 0.0020524834 -0.03946859 0.041842416 0.12857072
-0.03865857 -0.07805631 -0.06868688 0.04904344 0.009369579 -0.021010496 -0.008938209 0.05713453
-0.24297567 -0.12213941 0.012756083 -0.15067089 0.1887576 0.011602506 0.0086875595 0.07094446
0.44930172 -0.07544932 0.0628675 -0.13015772 -0.0007853718 0.09225716 -0.041808084 -0.0003978854
-0.0995192 -0.025834039 0.047736313 -0.017541949 0.040922083 0.2157908 -0.075354956 0.051443197
0.03315211 -0.0040629413 0.16097102 0.0022476527 -0.24973665 0.01106637 0.07482959 0.019370409
-0.015583578 0.05036223 -0.09581181 -0.02968828 -0.113216355 -0.023997659 -0.107176825 0.30421916
-0.10843206 0.030993382 0.02384489 -0.06805081 -0.20676845 -0.099067345 -0.07005396 -0.1133383
-0.09974314 0.09100256 0.001231313 0.0031595854 -0.018430075 0.039942637 -0.21166286 -0.011556034
-0.07964892 0.1936645 -0.023959301 0.045507092 0.042066645 -0.03747883 0.023643337 -0.17590174
-0.03105795 0.0314491 0.048428256 0.0861048 0.021526046 -0.22915852 -0.046054136 0.35815772
-0.004233408 -0.17759956 -0.08503846 -0.14381158 0.03607021 0.049381282 -0.102633625 -0.09265505
-0.08179495 0.06867822 -0.11253326 0.29634836 -0.019318793 0.26079273 -0.07887598 0.06519803
0.017920636 0.079922 -0.06277281 0.04061226 0.031547364 0.05618872 -0.035167247 0.06509207
00000000: 0237 0e3e 95a9 713d 986d 1d3d 864d 6a3d
00000010: c83c 0c3e b7e2 853b 009b 13be 220c 07bb
00000020: c8ae bb3d b6fa 41bd c460 ca3c 822d 133e
00000030: 0661 153d a200 e33c 33f7 51bc bf00 05be
00000040: b946 b3bd 5886 453e 2073 fe3c 8c4b ce3c
00000050: 5457 053e 1135 df3c 480d b73d 4080 923d
00000060: f6a9 153e e14e 14be 8002 19bd 28b5 50be
00000070: 5c81 0a3e d4c1 913d 66d5 36be c058 71bc
00000080: a514 94bd 0dae bb3d ff3a b03d 0a7f d7bd
00000090: 54e9 b7bb 7353 23be 43d0 e7bd 70d1 9fbc
000000a0: 7274 443d 7b91 863d c991 5f3d 82a5 e5bd
000000b0: b276 b33d c4d8 6c3d efdb 8e3c aa77 3b3e
000000c0: 77fa 853e 1114 333d 4b2a 803e d579 223e
000000d0: 9d06 8b3e a962 443d 569a 71bd a958 25bd
000000e0: 4cca 93bd 1611 fe3d 709e 023b f5ce ae3c
000000f0: d7f6 a9bd d1f7 a83d 675b 8e3c 0095 55be
00000100: 558f 17bb 9f5e 823d 88db c7bd 6bf8 15bd
00000110: f5dc 9ebd c96c 613c 6315 fe3d 2c5c ae3c
00000120: a8ef bfbd 24f3 a53e 0c8a 25be e090 d33d
00000130: 8020 03be a768 cdbd 6fce 25be de4c 81be
00000140: ad89 9a3e c0c8 ed3d 9cc9 8e3e d968 01bc
00000150: 858a 98bd bb43 643d dc7a ed39 5f7f 3ebe
00000160: 0c5d a5bd 00df f43d abf3 343d 3d1e c43c
00000170: c83f 1f3e 8b04 4ebe 3bc7 243e ba78 70bd
00000180: b369 57bc 0d04 eabd 2098 dd3b 6cbe 843d
00000190: 561a c03d ae24 b7bd 46f6 38bd 60a2 b93d
000001a0: 895e ecbe bc5d afbd 7fed 503d 8e21 58bd
000001b0: 625b 083e ba6a 3ebe d193 19bd eeff 15bd
000001c0: 4360 b73e 0c2b 96bd 54bb b23c 81ce 043e
000001d0: 07b8 57be 6a1a 463c dced f23e cd27 08be
000001e0: f4a4 753b e2c8 263e 54da 9f3c 9248 cfbd
000001f0: dcee 43bd 799b 0ebe f7ce cd3d 35ff 48be
00000200: 95ab 4d3c ea5a 643d e9a1 3e3d 057c 203e
00000210: c4a4 b53d b13b e5bd cc26 8bbd 3df0 4f3d
00000220: ad10 87bd 50bf 31be 257d 09be f4b1 4d3e
00000230: f2f3 3c3c 40cb f33c 4c18 e53c d3fb 8fbd
00000240: 26ed 9ebd 667d 9e3c 2c70 0cbd 8e88 55bd
00000250: f582 063b d1a9 21bd f462 2b3d 0ba8 033e
00000260: 7358 1ebd fddb 9fbd b5ab 8cbd c6e1 483d
00000270: dd82 193c 341e acbc 9171 12bc e605 6a3d
00000280: 9dce 78be 3a24 fabd e4fe 503c 7849 1abe
00000290: ac49 413e 7018 3e3c 4456 0e3c 544b 913d
000002a0: e00a e63e 2c85 9abd adc0 803d 1148 05be
000002b0: 69e1 4dba 52f1 bc3d f43e 2bbd 469b d0b9
000002c0: b9d0 cbbd e8a1 d3bc 2787 433d 22b4 8fbc
000002d0: ea9d 273d 43f8 5c3e b353 9abd 1ab6 523d
000002e0: 82ca 073d 6c22 85bb 96d5 243e 5b4d 133b
000002f0: f7ba 7fbe b84f 353c 4240 993d b1ae 9e3c
00000300: 4352 7fbc a048 4e3d fb38 c4bd d634 f3bc
00000310: fadd e7bd bd96 c4bc 867f dbbd 9dc2 9b3e
00000320: a111 debd d5e5 fd3c 5c56 c33c 395e 8bbd
00000330: 1cbb 53be d2e3 cabd 7378 8fbd e91d e8bd
00000340: 2246 ccbd 8d5f ba3d 0264 a13a 0c11 4f3b
00000350: abfa 96bc e49a 233d 26be 58be 8555 3dbc
00000360: f91e a3bd fd4f 463e 4c46 c4bc a565 3a3d
00000370: 134e 2c3d 6783 19bd acaf c13c 961f 34be
00000380: 3e6d febc c5d0 003d b55c 463d b757 b03d
00000390: 6457 b03c 88a8 6abe 43a3 3cbd 7360 b73e
000003a0: 66b8 8abb a9dc 35be a528 aebd 5843 13be
000003b0: 5bbe 133d 0744 4a3d 9431 d2bd eec1 bdbd
000003c0: 1c84 a7bd 2ba7 8c3d d677 e6bd f9ba 973e
000003d0: 7242 9ebc a086 853e bb89 a1bd 8b86 853d
000003e0: 4cce 923c 25ae a33d 088f 80bd 0b59 263d
000003f0: cf37 013d 2526 663d 880b 10bd fe4e 853d

rnn.bias_ih_l0 f4 [128]
0.0700526 -0.0809971 -0.0028884572 -0.02229041 0.005636988 0.035395406 0.121908315 0.09922055
0.032083604 0.027370926 -0.030668112 -0.12048042 0.03411917 0.06253367 0.113639645 -0.05260189
0.055696085 0.0711436 -0.18316123 0.1919588 -0.031261284 -0.025400076 -0.12648402 -0.14226781
-0.022037659 -0.07483836 0.070788756 -0.104111746 0.13505584 -0.041130595 -0.10353421 0.17770104
-7.515393e-05 -0.045966152 0.079055585 0.1116885 -0.032785468 0.03579724 -0.047176544 -0.16687453
-0.13842863 0.11881014 -0.064236954 0.053824108 -0.029423526 -0.037192605 -0.008240147 -0.035799272
0.04520219 0.0129702035 0.034254365 0.08771932 0.08270769 -0.09165944 0.10250496 0.008848372
-0.12786879 0.2145343 -0.10448752 0.028663654 0.045458984 0.02703642 -0.060389087 -0.04857768
-0.14871472 -0.07842196 0.08048348 -0.11948433 -0.012063284 -0.033499125 0.05584643 -0.12044841
0.04693888 -0.08771804 -0.15838449 0.1258884 -0.03250472 -0.10438644 -0.082596384 0.061996434
0.010367628 -0.00068047544 -0.13668202 -0.14886962 0.031331908 -0.071879655 -0.011899976 -0.13745779
0.12087427 -0.033191025 0.16096641 -0.028257836 -0.0021550907 0.02623932 0.049634755 0.0993365
-0.019767666 -0.14501104 -0.11063844 -0.15600352 -0.020584244 0.006211638 -0.16108501 -0.1856616
-0.16673678 0.005631393 0.037668142 0.017961634 -0.11947537 -0.098503724 0.21442474 0.030764457
0.034149013 -0.11654205 -0.030249367 -0.056027714 0.11255002 -0.14957318 0.08106702 0.057847116
-0.09321544 0.04744847 -0.015103356 0.122376844 0.14718671 -0.21858746 -0.09309445 0.07046427
00000000: bd77 8f3d cfe1 a5bd 454c 3dbb 619a b6bc
00000010: 7cb6 b83b c6fa 103d 11ab f93d 2534 cb3d
00000020: 196a 033d fe38 e03c b13b fbbc 70be f6bd
00000030: 8bc0 0b3d a711 803d e7bb e83d 1475 57bd
00000040: 9421 643d bcb3 913d 9e8e 3bbe d990 443e
00000050: d50b 00bd d213 d0bc 0785 01be a7ae 11be
00000060: 5288 b4bc db44 99bd b2f9 903d 8a38 d5bd
00000070: 144c 0a3e 8e78 28bd be09 d4bd 43f7 353e
00000080: f59b 9db8 0147 3cbd e5e7 a13d f1bc e43d
00000090: 0e4a 06bd 20a0 123d 313c 41bd 28e1 2abe
000000a0: 3cc0 0dbe bb52 f33d aa8e 83bd ab76 5c3d
000000b0: 9b09 f1bc 4657 18bd ae01 07bc 42a2 12bd
000000c0: ee25 393d fa80 543c 4e4e 0c3d 30a6 b33d
000000d0: a662 a93d f2b7 bbbd 1fee d13d c3f8 103c
000000e0: 09f0 02be e1ae 5b3e 8efd d5bd 0ad0 ea3c
000000f0: 3333 3a3d 7b7b dd3c 8c5a 77bd 64f9 46bd
00000100: ac48 18be b19b a0bd 86d4 a43d 33b4 f4bd
00000110: 15a5 45bc 6136 09bd 3abf 643d a8ad f6bd
00000120: fc42 403d 84a5 b3bd 8b2f 22be e4e8 003e
00000130: ab23 05bd 8fc8 d5bd 4b28 a9bd f9ef 7d3d
00000140: fcdc 293c ef61 32ba 5ff6 0bbe 4771 18be
00000150: e355 003d a435 93bd 1ef8 42bc bcc1 0cbe
00000160: ee8c f73d 50f3 07bd 61d4 243e fa7c e7bc
00000170: 6c3c 0dbb d8f3 d63c d04d 4b3d ef70 cb3d
00000180: cdef a1bc c67d 14be 6896 e2bd 63bf 1fbe
00000190: 4aa0 a8bc ff8a cb3b 78f3 24be 131e 3ebe
000001a0: 0cbd 2abe 8c87 b83b e949 1a3d 4724 933c
000001b0: 81af f4bd 52bc c9bd 2992 5b3e be05 fc3c
000001c0: d6df 0b3d 99ad eebd 85cd f7bc 517d 65bd
000001d0: a080 e63d b629 19be 7706 a63d 19f1 6c3d
000001e0: bde7 bebd 5459 423d 1174 77bc b6a0 fa3d
000001f0: 1db8 163e 64d5 5fbe 4ea8 bebd 924f 903d

rnn.bias_hh_l0 f4 [128]
0.10602804 -0.09769569 0.119197875 0.042369924 0.02477666 0.05651915 0.010820828 -0.051529873
-0.040502563 -0.051629566 0.026120847 -0.11728998 -0.07324324 -0.079910755 0.13727647 -0.013308008
0.051932808 -0.009974228 -0.07424286 0.14610106 2.1689102e-05 0.059675485 -0.118559286 -0.2618043
-0.0020244874 -0.11922445 0.05644105 -0.06243361 0.072532594 0.07505981 0.0024103269 0.16000359
-0.010023272 0.04459034 -0.0027139934 0.004682853 -0.079805605 -0.08913833 -0.04271248 -0.16464332
-0.08466753 0.15716028 -0.19293983 0.13682738 -0.02887555 -0.10867279 -0.048586864 -0.084446765
0.053268712 0.016172647 0.061774462 0.15528722 0.004169057 0.007907802 0.035353493 -0.060143996
-0.18378903 0.17470904 -0.04250388 0.15676276 0.089976475 -0.038194872 0.016371489 -0.11699019
-0.14834058 0.078723736 -0.022889843 -0.18054193 0.00038071885 -0.004465493 0.107122794 -0.02689467
0.047627177 0.05106005 -0.083821766 0.15207474 0.04585978 -0.005739919 -0.07114176 0.13899547
0.029235702 0.04803149 -0.13349213 -0.11561771 0.0052116658 -0.036510013 0.09407674 -0.12249054
-0.015409978 -0.04616025 0.12566635 -0.0021242253 -0.00968144 0.024872355 0.16422212 0.07314641
0.049046367 -0.15337804 -0.21045956 -0.1542776 -0.068811685 0.07313306 -0.014880178 -0.041141238
-0.23497252 -0.013650787 0.007836593 0.074437335 -0.10796069 -0.08304763 0.06957154 0.09911839
0.13802014 -0.112905085 -0.005692456 -0.10447183 0.13266051 -0.15423937 0.15633777 -0.040074132
-0.1963666 0.018230192 -0.037158582 0.15517059 0.11658679 -0.18316308 -0.1643526 0.05298032
00000000: 3b25 d93d ae14 c8bd 041e f43d 168c 2d3d
00000010: 6cf8 ca3c a080 673d d849 313c fd10 53bd
00000020: 04e6 25bd 8679 53bd 63fb d53c bb35 f0bd
00000030: 8d00 96bd 40a8 a3bd 3492 0c3e d509 5abc
00000040: 7fb7 543d f26a 23bc a40c 98bd 849b 153e
00000050: fef0 b537 486e 743d 36cf f2bd 370b 86be
00000060: 43ad 04bb f32b f4bd bb2e 673d 63ba 7fbd
00000070: f88b 943d f5b8 993d 93f6 1d3b fbd7 233e
00000080: a638 24bc 5ca4 363d 41dd 31bb 9e72 993b
00000090: 1f71 a3bd 288e b6bd 48f3 2ebd 4298 28be
000000a0: 2c66 adbd a0ee 203e 0592 45be 7a1c 0c3e
000000b0: 6b8c ecbc d78f debd 0503 47bd 6df2 acbd
000000c0: 4b30 5a3d 807c 843c 3807 7d3d 9d03 1f3e
000000d0: 969c 883b ba8f 013c d3ce 103d 8d59 76bd
000000e0: 3133 3cbe ede6 323e 8c18 2ebd 6b86 203e
000000f0: 9645 b83d 3a72 1cbd 801d 863c 8e98 efbd
00000100: 98e6 17be e939 a13d 7b83 bbbc fcdf 38be
00000110: 389b c739 4553 92bb 3263 db3d 3652 dcbc
00000120: b714 433d 5824 513d bfaa abbd 7bb9 1b3e
00000130: 77d7 3b3d ee15 bcbb c5b2 91bd d454 0e3e
00000140: b67f ef3c abbc 443d 29b2 08be fac8 ecbd
00000150: 9fc6 aa3b 868b 15bd 4eab c03d 52dc fabd
00000160: 227a 7cbc 8812 3dbd aeae 003e 9636 0bbb
00000170: e79e 1ebc 1cc1 cb3c d829 283e c9cd 953d
00000180: d8e4 483d 220f 1dbe b682 57be f2fa 1dbe
00000190: 24ed 8cbd c9c6 953d fdcb 73bc b783 28bd
000001a0: a39c 70be 8da7 5fbc 0e65 003c 9a72 983d
000001b0: 7f1a ddbd e014 aabd 867b 8e3d 95fe ca3d
000001c0: 2755 0d3e c83a e7bd c887 babb 54f5 d5bd
000001d0: 28d8 073e edf0 1dbe 0217 203e c624 24bd
000001e0: 5314 49be 7c57 953c 9933 18bd 0ae5 1e3e
000001f0: 0ec5 ee3d 1a8f 3bbe 0c4c 28be e401 593d

rnn.weight_ih_l1 f4 [128, 128]
-0.15763661 -0.054422982 0.036070026 -0.09711 -0.080127284 0.22237885 0.053616643 0.078376815
-0.014940907 0.15357915 0.05668867 -0.14655766 0.090328194 -0.053622436 -0.081608206 0.015930781
0.055830292 -0.03424974 -0.09479149 -0.09488851 -0.21946535 0.15242931 -0.14455226 -0.097365566
0.05445848 0.022488741 -0.04875435 0.009085681 -0.086111635 -0.08344453 0.09907526 0.008907837
0.023311703 -0.2070551 -0.096020855 0.20801161 -0.2004676 0.06268975 0.027116654 -0.030958485
-0.26725006 0.026719028 -0.16804813 0.16586824 -0.084744334 -0.21157414 0.023301978 -0.11977238
-0.1582075 0.041683245 -0.051249307 -0.028428247 -0.021176929 -0.26787132 0.13505816 0.08682034
-0.024567947 -0.035757244 -0.23396724 -0.036004655 0.11464632 -0.22199796 0.091176055 0.042889174
-0.07116569 -0.03863706 0.11926878 -0.10970352 0.11097028 0.28116396 -0.01944803 -0.20312975
-0.018811323 0.0648625 0.014851246 -0.023995884 0.18104836 0.12440956 0.1334602 0.07383524
0.021454217 -0.18371579 0.06661837 0.016463915 0.20869036 -0.1779354 0.2343303 0.06988023
0.065204896 -0.15593444 -0.15021999 -0.19845913 0.07231819 0.068863295 -0.1294995 0.20117253
0.09861553 0.07695282 0.12815899 -0.011976973 -0.16884266 0.16574922 -0.028041376 -0.102055
0.026718693 0.1222217 0.07693684 0.18417014 -0.21106048 0.004653651 0.084128246 -0.026385603
-0.1346544 0.09315172 0.023631446 -0.31702998 0.05221489 -0.19015732 -0.08122712 -0.0111546805
-0.040825058 -0.08320826 0.016050931 0.23117577 0.041566003 -0.008088819 0.09761291 0.006566198
0.05172143 0.05370676 -0.031457912 0.19788247 0.041543312 -0.09338148 0.07096292 -0.031140953
0.035924267 -0.16743743 -0.16900028 0.12953141 0.01958075 0.050202478 0.112075046 -0.1405028
-0.027424743 -0.003837015 0.0629731 0.07682276 0.18753344 -0.12076403 0.024450336 -0.081461415
-0.030011794 -0.16031773 -0.08126084 -0.030897574 0.10571644 0.1874878 -0.21445397 -0.034352347
-0.16606684 0.025090743 0.20209739 -0.17711906 0.097342536 -0.08743134 -0.1833704 0.055573408
0.12684625 0.03670667 0.048577946 -0.080226794 0.078598134 0.13789746 0.08356263 0.14564586
0.10851402 -0.039588135 0.13006084 0.071053095 0.002186671 0.103347525 0.0028174473 -0.088904515
-0.04153739 -0.012486463 0.1532015 0.027313842 -0.13670602 0.13312241 -0.050229374 -0.15358657
0.082117535 0.14555801 -0.22053398 -0.007620821 -0.20310333 -0.07328973 0.104005754 0.28366
-0.04941296 0.08134679 -0.0020586946 0.09600654 -0.06634903 -0.16260631 0.019333133 -0.07929711
0.16443509 0.14025037 0.02992538 0.036596034 -0.12118986 -0.054315034 -0.22828206 0.06727473
-0.0479281 0.06671341 -0.030327888 0.09929765 0.10500387 -0.08073229 0.14073658 -0.11990066
-0.15231523 -0.06031867 0.04273039 0.017674988 0.012978634 -0.2273297 0.009088857 0.1810928
0.0057707755 -0.09608484 -0.018250497 -0.11296851 0.1614622 -0.011200561 -0.08448276 -0.018520053
0.088722534 -0.07024027 -0.1436035 0.1872394 -0.12397428 0.1481588 0.099493645 -0.024005713
-0.0016461243 0.125131 -0.11525209 -0.013296525 -0.020735558 -0.018835066 -0.120035484 0.098342724
00000000: 7e6b 21be a2ea 5ebd 2abe 133d 9ce1 c6bd
00000010: c619 a4bd 48b7 633e 209d 5b3d 0684 a03d
00000020: b5ca 74bc da43 1d3e 6132 683d 3613 16be
00000030: fdfd b83d 33a3 5bbd 3422 a7bd 4581 823c
00000040: 4eae 643d 7549 0cbd 0a22 c2bd e854 c2bd
00000050: 86bb 60be 6e16 1c3e 8205 14be 9967 c7bd
00000060: db0f 5f3d 4f3a b83c a4b2 47bd 1cdc 143c
00000070: 4c5b b0bd f7e4 aabd f8e7 ca3d 2df2 113c
00000080: 2ff8 be3c 4106 54be 95a6 c4bd ff00 553e
00000090: 6147 4dbe 7c63 803d bf23 de3c a69c fdbc
000000a0: 00d5 88be dde1 da3c cf14 2cbe 5dd9 293e
000000b0: 708e adbd e4a6 58be cae3 be3c 394b f5bd
000000c0: 2601 22be 0dbc 2a3d cbea 51bd 5be2 e8bc
000000d0: 3d7b adbc 6e26 89be b04c 0a3e ddce b13d
000000e0: b842 c9bc 3076 12bd 1c95 6fbe 9e79 13bd
000000f0: b1cb ea3d 6f53 63be 83ba ba3d 8fac 2f3d
00000100: 51bf 91bd e541 1ebd 3143 f43d 3dac e0bd
00000110: 6344 e33d b9f4 8f3e 7a51 9fbc 3f01 50be
00000120: 341a 9abc a1d6 843d a452 733c 0493 c4bc
00000130: be64 393e 70ca fe3d caa9 083e ee36 973d
00000140: c1c0 af3c fe1f 3cbe 366f 883d 55df 863c
00000150: edb2 553e b334 36be 48f4 6f3e 5e1d 8f3d
00000160: 258a 853d 47ad 1fbe 45d3 19be df38 4bbe
00000170: 8f1b 943d 3308 8d3d 849b 04be 2c00 4e3e
00000180: f0f6 c93d 7199 9d3d 1c3c 033e 113b 44bc
00000190: 17e5 2cbe 2aba 293e 07b7 e5bc 3602 d1bd
000001a0: 29e1 da3c 5f4f fa3d 1091 9d3d 1997 3c3e
000001b0: 3d20 58be a77d 983b 6e4b ac3d 9f26 d8bc
000001c0: d8e2 09be 54c6 be3d bc96 c13c c151 a2be
000001d0: 48df 553d 9ab8 42be 675a a6bd 1fc2 36bc
000001e0: 2d38 27bd 1869 aabd 3e7d 833c 57b9 6c3e
000001f0: 1d41 2a3d f786 04bc 47e9 c73d 4329 d73b
00000200: dad9 533d 9ffb 5b3d 03da 00bd b4a1 4a3e
00000210: 5229 2a3d ca3e bfbd 0255 913d 501b ffbc
00000220: 5325 133d b874 2bbe 690e 2dbe e2a3 043e
00000230: cf67 a03c 1da1 4d3d 9a87 e53d f7df 0fbe
00000240: dba9 e0bc 6e76 7bbb 0af8 803d 4055 9d3d
00000250: c408 403e 2253 f7bd 124c c83c 3ed5 a6bd
00000260: 4bdb f5bc 552a 24be 156c a6bd e91c fdbc
00000270: dc81 d83d cdfc 3f3e d299 5bbe 0cb5 0cbd
00000280: 6d0d 2abe 1a8b cd3c 9ef2 4e3e b35e 35be
00000290: 865b c73d 340f b3bd 73c5 3bbe f1a0 633d
000002a0: fce3 013e bc59 163d abf9 463d f24d a4bd
000002b0: 0ff8 a03d fe34 0d3e e222 ab3d 3024 153e
000002c0: 993c de3d 2b27 22bd ab2e 053e 4984 913d
000002d0: 404e 0f3b dea7 d33d eca4 383b 9213 b6bd
000002e0: 1c23 2abd 0694 4cbc dbe0 1c3e 47c1 df3c
000002f0: aafc 0bbe 3e51 083e 51bd 4dbd cc45 1dbe
00000300: 3d2d a83d 290d 153e a9d3 61be 14b8 f9bb
00000310: 52fa 4fbe ed18 96bd f800 d53d e23b 913e
00000320: 3e65 4abd 2599 a63d 2aeb 06bb 149f c43d
00000330: 00e2 87bd 4582 26be 8560 9e3c 8666 a2bd
00000340: ac61 283e cb9d 0f3e 1226 f53c b9e5 153d
00000350: 6432 f8bd 7179 5ebd c6c2 69be 55c7 893d
00000360: 4150 44bd 0aa1 883d 3172 f8bc 915c cb3d
00000370: 450c d73d f956 a5bd 401d 103e 7a8e f5bd
00000380: 86f8 1bbe b610 77bd 1006 2f3d 23cb 903c
00000390: 56a4 543c 1ec9 68be 6ee9 143c 6470 393e
000003a0: c618 bd3b 21c8 c4bd 1182 95bc 095c e7bd
000003b0: 5956 253e 8f82 37bc 4c05 adbd 5eb7 97bc
000003c0: 29b4 b53d 21da 8fbd cc0c 13be afbb 3f3e
000003d0: 3ae6 fdbd f1b6 173e 53c3 cb3d a1a7 c4bc
000003e0: c4c2 d7ba 5722 003e 4a09 ecbd abd9 59bc
000003f0: 9edd a9bc ff4b 9abc 2ad5 f5bd e967 c93d

rnn.weight_hh_l1 f4 [128, 128]
-0.036657598 -0.011216748 -0.01958627 0.08829135 0.080780394 0.109833136 -0.18676016 -0.029944375
-0.09992164 -0.13246146 -0.10568059 -0.11423882 -0.100583814 -0.09099683 -0.0125514865 0.10248893
0.10593477 -0.0616089 0.049370643 0.0845102 0.004840859 -0.12865423 -0.060798433 -0.079310775
0.00490985 0.037495226 0.06549221 -0.1272337 0.05062495 -0.09233794 0.101519905 0.08325598
-0.088887565 0.03544127 -0.17688839 -0.1432529 -0.04916038 -0.06050171 0.07841364 -0.021177871
0.11331096 -0.1497312 0.056816738 -0.08757367 -0.030863786 -0.1467877 -0.12003268 0.036901638
0.07777087 -0.05601025 0.012517149 -0.16683923 -0.015269743 -0.121543564 0.0019396567 -0.002482232
0.13791579 0.0022672976 -0.2346341 -0.3145449 -0.04431499 -0.082795724 0.18071027 0.17355625
0.030490091 0.03772277 -0.058638617 0.11531625 -0.08745019 0.021404475 -0.009523141 0.18828239
0.18948087 0.108632416 0.18675745 0.08617979 0.118841134 -0.08514109 -0.008115062 0.15215088
0.16076277 -0.06181283 -0.011636793 -0.07691671 -0.05072856 0.14419414 0.10082622 -0.16117018
0.0531164 -0.049603697 -0.068524286 0.2027384 0.11957811 -0.10561506 0.20324722 -0.15795983
-0.049361195 -0.12966287 0.12435682 -0.08831536 0.056478877 -0.049527902 0.110149324 0.009916186
0.031109072 0.06259847 -0.11649147 0.061411984 0.068318486 -0.04397524 0.08615077 0.15281227
0.22938845 -0.10640505 0.22138892 0.3031316 0.07885479 0.10008728 -0.009426362 0.21049266
-0.1568611 -0.06868145 0.0069883214 -0.0134547055 -0.0063285707 -0.09604895 -0.099349625 -0.034689013
-0.06072234 -0.07435526 0.05474176 0.13462187 -0.03550403 0.0030489273 0.085392535 0.039510693
0.011885347 0.07789819 0.07371883 0.14199448 0.043075632 0.049811833 0.045115374 -0.21805026
0.06227981 -0.10688914 0.07032146 0.031414434 -0.018437987 0.22120939 0.15465392 -0.008533618
0.10508836 0.051772732 0.040739615 0.095053546 -0.19469784 0.1521316 -0.07511775 0.073208444
-0.011394693 -0.049524263 0.08993854 0.115787104 -0.073788606 0.09664944 -0.07714458 -0.045545373
0.0958367 -0.0058606598 0.07469091 0.056981172 0.074022576 0.09045144 -0.059641864 0.038533863
-0.07733323 -0.043531463 0.11611048 0.09839565 0.100348316 -0.050014704 -0.12072619 -0.13712336
-0.14221637 0.11900833 0.005179354 0.1913115 0.12347396 -0.04018697 -0.0155016575 -0.11400674
-0.07374369 -0.07199743 -0.047124356 -0.07773986 -0.044050828 0.19990605 -0.011999342 -0.0574884
-0.061988898 0.010601979 0.05667 -0.048156817 -0.12596239 0.05244896 0.055508114 -0.1834572
-0.006828335 0.05142961 0.010925896 -0.12441669 0.07908254 -0.062227853 0.010392601 -0.04598419
0.026015332 -0.20946784 -0.045350872 -0.19304398 0.03719443 0.0824464 -0.18002653 0.14857414
-0.073390245 -0.07265378 -0.20480889 -0.018981842 -0.0925776 -0.047556102 0.031599935 -0.1094768
-0.009725602 -0.1963418 -0.011055211 -0.16058798 -0.054513942 0.16169207 -0.028864507 -0.0752584
-0.1388257 0.071125805 -0.17044303 -0.061779853 -0.09367153 -0.048686884 -0.13367938 0.057301335
0.062101353 0.10938056 -0.020845825 0.085039094 0.12630905 0.00419283 0.07864436 0.1991273
00000000: 4726 16bd 73c6 37bc 6373 a0bc 18d2 b43d
00000010: 3170 a53d 32f0 e03d 0e3e 3fbe e84d f5bc
00000020: b7a3 ccbd faa3 07be 116f d8bd 0bf6 e9bd
00000030: e3fe cdbd 8c5c babd c0a4 4dbc b7e5 d13d
00000040: 54f4 d83d 9d59 7cbd df38 4a3d af13 ad3d
00000050: 12a0 9e3b efbd 03be c707 79bd b06d a2bd
00000060: cfe2 a03b 9894 193d c820 863d 8d49 02be
00000070: 1c5c 4f3d ad1b bdbd abe9 cf3d 1c82 aa3d
00000080: af0a b6bd dd2a 113d 3b22 35be e3b0 12be
00000090: 655c 49bd a4d0 77bd 5597 a03d 377d adbc
000000a0: 940f e83d 2353 19be abb8 683d d359 b3bd
000000b0: 0dd6 fcbc 844f 16be b2d3 f5bd 2c26 173d
000000c0: 5546 9f3d 016b 65bd ba14 4d3c e7d7 2abe
000000d0: f22d 7abc d5eb f8bd 143c fe3a f1ac 22bb
000000e0: cc39 0d3e f196 143b ec43 70be 070c a1be
000000f0: a383 35bd ce90 a9bd 1d0c 393e bbb8 313e
00000100: 5bc6 f93c 3183 1a3d 0c2f 70bd ed2a ec3d
00000110: 1619 b3bd 7058 af3c f306 1cbc 19cd 403e
00000120: 4607 423e ac7a de3d 583d 3f3e 087f b03d
00000130: fb62 f33d 745e aebd 09f5 04bc 71cd 1b3e
00000140: ff9e 243e 732f 7dbd 3fa8 3ebc 8286 9dbd
00000150: c0c8 4fbd a1a7 133e fa7d ce3d cc09 25be
00000160: 9590 593d 3f2d 4bbd 7656 8cbd a89a 4f3e
00000170: 5ee5 f43d b54c d8bd 0a20 503e 39c0 21be
00000180: f72e 4abd 58c6 04be caae fe3d afde b4bd
00000190: 6556 673d c5dd 4abd f895 e13d 8077 223c
000001a0: 74d8 fe3c a033 803d 1493 eebd 228b 7b3d
000001b0: 90ea 8b3d 621f 34bd d16f b03d d27a 1c3e
000001c0: cee4 6a3e e4ea d9bd c7b3 623e 1134 9b3e
000001d0: 9f7e a13d 8ffa cc3d 0771 1abc 638b 573e
000001e0: 32a0 20be dca8 8cbd 4afe e43b 2071 5cbc
000001f0: e65f cfbb 50b5 c4bd d177 cbbd 1116 0ebd
00000200: fdb7 78bd 9247 98bd e538 603d 51da 093e
00000210: ac6c 11bd 83d0 473b 48e2 ae3d f7d5 213d
00000220: c2ba 423c 1689 9f3d e6f9 963d 0067 113e
00000230: 1370 303d 7e07 4c3d e6ca 383d 9148 5fbe
00000240: 1d19 7f3d b2e8 dabd b304 903d 6cac 003d
00000250: 430b 97bc b784 623e 995d 1e3e 97d0 0bbc
00000260: 9138 d73d a50f 543d 95de 263d 6fab c23d
00000270: df5e 47be 63c8 1b3e 56d7 99bd 4fee 953d
00000280: ceb0 3abc f4d9 4abd b231 b83d ca21 ed3d
00000290: 7b1e 97bd 24f0 c53d fafd 9dbd c98d 3abd
000002a0: 0846 c43d c70a c0bb 8cf7 983d 1765 693d
000002b0: 2699 973d 9b3e b93d 074b 74bd afd5 1d3d
000002c0: e260 9ebd 0c4e 32bd 55cb ed3d a983 c93d
000002d0: 6b83 cd3d 38dc 4cbd 4b3f f7bd 116a 0cbe
000002e0: 2ba1 11be a4ba f33d 92b7 a93b 29e7 433e
000002f0: eadf fc3d 189b 24bd aafa 7dbc 5e7c e9bd
00000300: ef06 97bd 6373 93bd 7805 41bd 1336 9fbd
00000310: a46e 34bd 2cb4 4c3e e398 44bc f578 6bbd
00000320: 12e8 7dbd ecb3 2d3c cd1e 683d 1540 45bd
00000330: 49fc 00be b8d4 563d 7a5c 633d 34dc 3bbe
00000340: 3ac0 dfbb dba7 523d 8702 333c 2dce febd
00000350: 07f6 a13d a2e2 7ebd ba45 2a3c eb59 3cbd
00000360: 1b1e d53c bd7e 56be d6c1 39bd 52ad 45be
00000370: 3059 183d a8d9 a83d e058 38be d223 183e
00000380: a04d 96bd 81cb 94bd 6cb9 51be cf7f 9bbc
00000390: 5399 bdbd 30ca 42bd ef6e 013d 5f35 e0bd
000003a0: 2258 1fbc d30d 49be ea20 35bc 2d71 24be
000003b0: 034a 5fbd 9b92 253e 4275 ecbc 1321 9abd
000003c0: 5328 0ebe 68aa 913d 9e88 2ebe df0c 7dbd
000003d0: dcd6 bfbd e66b 47bd 3fe3 08be ceb4 6a3d
000003e0: fd5d 7e3d ea02 e03d ddc4 aabc fa28 ae3d
000003f0: 2957 013e 0264 893b 4b10 a13d 07e8 4b3e

rnn.bias_ih_l1 f4 [128]
-0.11995313 -0.08603729 0.12834653 -0.0067846 0.017721092 -0.098733224 0.121479645 -0.029080335
-0.00734533 -0.046646286 0.09719234 -0.058557235 0.014000056 0.013485474 0.14392996 -0.005937259
-0.058234997 0.04608561 -0.026739337 0.014694099 -0.017850475 -0.10165316 -0.0011550464 -0.0078784935
-0.0065507945 0.01595331 0.04608496 0.10576449 0.070171416 -0.12088661 -0.0022098406 0.1111294
0.04149087 0.087407425 -0.025491623 -0.12334143 0.08272844 0.109296955 -0.038256213 0.16875346
-0.02697948 0.32033053 0.17312922 0.19611296 0.30030072 0.012743646 -0.028378418 0.13029802
-0.037888475 0.07734668 0.052396595 0.05802485 -0.09251036 0.17292671 0.08386482 -0.12913352
0.024164924 0.025601773 0.031363044 -0.13497329 0.10060426 -0.0040476546 -0.07808768 0.06952599
-0.06322628 -0.05715984 0.018300815 0.018118499 0.00079331733 0.11533755 0.101239175 0.11901192
-0.082351 -0.0056336126 -0.21266478 -0.07958661 0.110824525 -0.07628955 0.046677053 0.022591636
0.05346247 0.08213046 0.09779048 -0.028787771 0.07218884 0.060893472 0.024199517 -0.111744784
0.008519518 -0.12276401 -0.07004766 -0.24367355 -0.19037445 0.010848316 -0.13770832 0.120869055
0.15615626 0.11796492 0.19608071 -0.038843554 -0.053898897 0.008353776 -0.09921026 0.10090289
-0.014664309 -0.08900059 -0.049453754 0.07020786 -0.06544855 0.003935905 -0.011903428 -0.041714102
0.04715869 0.0018406144 -0.14819586 0.09116963 -0.0035025598 0.015396156 0.006441373 -0.093133174
-0.14542738 -0.01959556 -0.07622253 0.12913647 -0.068337396 -0.014588397 0.012346632 0.24960257
00000000: fda9 f5bd 5234 b0bd 466d 033e 5a51 debb
00000010: d32b 913c a534 cabd 52ca f83d e239 eebc
00000020: 18b1 f0bb 2d10 3fbd c70c c73d b6d9 6fbd
00000030: 7e60 653c 2df2 5c3c 6062 133e 578d c2bb
00000040: d287 6ebd 44c4 3c3d 740c dbbc 85bf 703c
00000050: 293b 92bc 882f d0bd ed64 97ba cc14 01bc
00000060: 0ca8 d6bb 84b0 823c 95c3 3c3d 0e9b d83d
00000070: 08b6 8f3d 6693 f7bd f9d2 10bb d097 e33d
00000080: 55f2 293d aa02 b33d cfd3 d0bc 6f9a fcbd
00000090: 876d a93d 15d7 df3d 8cb2 1cbd b5cd 2c3e
000000a0: 1204 ddbc 5d02 a43e c948 313e d6d1 483e
000000b0: 04c1 993e baca 503c db79 e8bc d86c 053e
000000c0: f230 1bbd f067 9e3d d09d 563d 77ab 6d3d
000000d0: 1276 bdbd b313 313e 52c1 ab3d 943b 04be
000000e0: 85f5 c53c cfba d13c 8976 003d 7036 0abe
000000f0: 9b09 ce3d 30a2 84bb 6fec 9fbd a463 8e3d
00000100: c87c 81bd 7020 6abd 97eb 953c 3f6d 943c
00000110: a0f6 4f3a 1836 ec3d 7c56 cf3d 86bc f33d
00000120: a4a7 a8bd 2b9a b8bb ccc4 59be 4efe a2bd
00000130: f8f7 e23d b23d 9cbd 7030 3f3d 1812 b93c
00000140: 77fb 5a3d 0434 a83d 6046 c83d 55d4 ebbc
00000150: bed7 933d 6f6b 793d 113e c63c 73da e4bd
00000160: 7395 0b3c b36b fbbd 2675 8fbd 8f85 79be
00000170: 85f1 42be 23bd 313c 6903 0dbe 328a f73d
00000180: 6de7 1f3e 9897 f13d 62c9 483e 6b1a 1fbd
00000190: 17c5 5cbd 47de 083c c02e cbbd 2da6 ce3d
000001a0: 9242 70bc f145 b6bd 0590 4abd 23c9 8f3d
000001b0: e409 86bd c4f8 803b 9806 43bc 68dc 2abd
000001c0: 7829 413d c540 f13a a8c0 17be 25b7 ba3d
000001d0: 348b 65bb 2940 7c3c 2712 d33b 9bbc bebd
000001e0: eaea 14be de86 a0bc 8f1a 9cbd 5a3c 043e
000001f0: 7af4 8bbd 2c04 6fbc 8749 4a3c d197 7f3e

rnn.bias_hh_l1 f4 [128]
-0.08928228 -0.18103825 0.062207352 -0.009219514 0.12983131 0.04360526 0.026663218 -0.013958121
0.1048221 0.097545095 -0.019595617 -0.05457855 0.037004177 0.025631614 0.07999665 -0.15529497
-0.060525484 0.063641965 -0.020908585 0.00079168484 0.0039729984 0.043420926 0.09259428 0.006896041
0.012805529 -0.00095039926 0.06809785 0.031437885 -0.02230079 -0.04702815 -0.08720011 -0.028236879
0.043787036 6.538732e-05 -0.08821954 0.012953986 0.08109606 0.22131494 -0.04970925 0.015322883
-0.076317355 0.27103165 0.02654758 0.24097088 0.20965014 0.054390833 -0.022528782 0.0328373
0.0839318 -0.0021660705 0.11552507 0.09041639 -0.019293599 0.11844545 0.06269214 -0.22720061
-0.01515137 0.008152207 -0.009447144 -0.04100694 0.034854557 -0.026375504 -0.08623565 0.07206201
0.014491606 -0.033017144 0.04030694 0.0070828153 -0.06320132 0.08370003 0.12505788 0.087650426
-0.16702566 -0.06621613 -0.20558156 -0.19756156 -0.004178825 -0.041810557 -0.09184363 0.05332262
0.054034427 0.033173632 0.0078124255 -0.009291619 -0.050751947 -0.034445934 0.13291748 -0.09560817
6.246961e-05 0.007275878 -0.06744738 -0.14355862 -0.03646028 -0.0769369 -0.07652823 0.051182397
0.10064295 0.10687404 0.055110365 -0.035295997 -0.08293111 -0.07697764 -0.05341197 0.027612654
0.06711892 -0.02804573 -0.111219645 0.091171436 -0.009844843 0.09856859 -0.023628814 -0.02480056
-0.07056367 -0.031643942 -0.04764828 0.01619459 -0.1487725 0.08213816 0.086963415 -0.06921624
-0.07729688 0.01102941 -0.08844878 0.12418909 -0.081789665 -0.016351966 0.016819928 0.26872
00000000: a1d9 b6bd 1762 39be 23cd 7e3d 720d 17bc
00000010: 80f2 043e 6e9b 323d d26c da3c 9ab0 64bc
00000020: f8ac d63d b9c5 c73d fd86 a0bc c28d 5fbd
00000030: b191 173d 64f9 d13c 49d5 a33d a505 1fbe
00000040: 92e9 77bd b856 823d 7b48 abbc 1289 4f3a
00000050: ed2f 823b 24da 313d 12a2 bd3d 2ff8 e13b
00000060: 48ce 513c 3724 79ba e376 8b3d 03c5 003d
00000070: 25b0 b6bc 97a0 40bd f995 b2bd 0751 e7bc
00000080: 095a 333d 8d20 8938 72ac b4bd f53c 543c
00000090: b115 a63d 62a0 623e ed9b 4bbd d40c 7b3c
000000a0: 464c 9cbd a9c4 8a3e 4f7a d93c 12c1 763e
000000b0: 87ae 563e ecc8 5e3d 488e b8bc 6880 063d
000000c0: 70e4 ab3d a2f4 0dbb 6898 ec3d 3a2c b93d
000000d0: 9c0d 9ebc 8793 f23d bd64 803d 47a7 68be
000000e0: 743d 78bc d690 053c 32c8 1abc e5f6 27bd
000000f0: a7c3 0e3d 7111 d8bc 519c b0bd 3f95 933d
00000100: 336e 6d3c fc3c 07bd e418 253d f616 e83b
00000110: b26f 81bd ec6a ab3d 2c0f 003e 1182 b33d
00000120: c608 2bbe 539c 87bd f983 52be 944d 4abe
00000130: 86ee 88bb 8c41 2bbd 8318 bcbd d268 5a3d
00000140: 3453 5d3d 13e1 073d 60ff ff3b e03b 18bc
00000150: 46e1 4fbd 2e17 0dbd 851b 083e 37ce c3bd
00000160: 1e02 8338 7d6a ee3b da21 8abd 0801 13be
00000170: 6057 15bd 1891 9dbd d5ba 9cbd a2a4 513d
00000180: e41d ce3d c7e0 da3d 68bb 613d 8992 10bd
00000190: c9d7 a9bd 74a6 9dbd 83c6 5abd ef33 e23c
000001a0: a575 893d 29c0 e5bc 20c7 e3bd 17b8 ba3d
000001b0: 444c 21bc 54de c93d 3791 c1bc 8b2a cbbc
000001c0: af83 90bd 149d 01bd d82a 43bd 84aa 843c
000001d0: d157 18be 0d38 a83d e019 b23d 3ec1 8dbd
000001e0: d44d 9ebd b3b4 343c a224 b5bd da56 fe3d
000001f0: 5781 a7bd 8ff4 85bc f2c9 893c ab95 893e

fc.weight f4 [10, 128]
0.035224732 0.03903883 0.03319887 0.07214549 0.020685997 0.0015393134 0.020382982 0.035404146
-0.026914243 0.02425171 0.04783062 0.104227394 0.020480871 -0.045392998 -0.07994149 -0.05179586
-0.01604957 0.007286061 -0.07166738 -0.042680364 0.075210355 0.086385876 0.08777533 -0.081323355
-0.013321169 -0.0017017373 0.0024676062 0.003963838 0.00661767 -0.037604507 0.011201564 -0.019706964
0.11865487 -0.083343 -0.03484904 -0.0950525 -0.04360531 -0.009675308 -0.04936872 0.08004324
0.039653067 0.09014887 -0.04566286 -0.016681265 0.04659089 -0.021304179 0.0044718594 -0.0049250782
0.017907435 0.05085008 -0.0049262512 0.018517343 -0.054795228 0.03066795 -0.04173823 0.03480343
0.055724964 -0.018984504 -0.06409962 0.063624 0.052147932 0.09531825 0.00559014 -0.071991906
-0.0692693 -0.084192105 -0.053882502 -0.015371767 -0.016760888 -0.038922206 -0.13247809 -0.05879434
0.017377095 -0.01887867 -0.0016398039 0.028365348 -0.04485713 0.09731264 0.025651697 -0.044909127
0.021675961 -0.0016681093 0.16987805 0.04246576 -0.03672255 -0.038070172 0.036136635 0.007202597
0.08346774 -0.0071137473 0.008646956 -0.08521295 -0.026510794 0.008424231 -0.06783191 0.045681566
0.0072191083 0.025028847 -0.052672707 0.028443104 -0.099953346 0.079758696 0.021456145 -0.030065065
-0.014916715 -0.07359721 0.033270452 -0.07887764 -0.079758324 0.08394343 -0.04639416 -0.038663585
-0.076954864 -0.03482958 0.02635186 -0.06276947 -0.018168617 0.014214819 0.03204892 -0.011409467
-0.0896904 0.0224932 0.04833684 0.007020374 0.034985602 0.10523801 -0.10801578 0.06286183
-0.09752557 -0.01841893 -0.074434586 0.0047820862 -0.031824883 0.07660014 -0.08669344 0.07496366
0.031454116 0.10735808 0.038979735 0.039213076 -0.053221613 -0.005820252 0.03159372 -0.011233431
-0.009359788 -0.0068587773 -0.009087728 -0.027461477 -0.08431101 -0.06870285 -0.00921063 0.027907131
-0.045543376 -0.007472642 -0.0143500995 -0.08720134 0.013789935 0.0012619433 -0.039753743 0.008936548
-0.064412765 0.12527621 0.076825276 0.07280617 0.10798509 -0.017640043 -0.0048763943 -0.08429957
-0.10442561 0.093349725 0.04087902 0.012130744 0.015876396 -0.053456716 0.11086321 -0.015333035
0.0048979474 0.10156925 0.042535268 0.020137321 0.010112867 -0.01956263 0.0041081132 -0.019990342
-0.11248071 -0.05254458 0.17758445 0.044815905 -0.021834206 0.0016882708 0.052574843 -0.02711676
-0.0580547 0.064028546 0.034451023 0.018442549 0.024495363 -0.056110486 -0.05968085 -0.056253497
-0.029469127 -0.0020714835 0.022902703 -0.084535964 -0.0068209274 0.04897817 0.014226362 0.0076980963
-0.043784693 -0.008762173 0.0054361545 0.057632245 -0.050245292 0.050613217 0.056765493 -0.044136558
-0.044901177 -0.05831628 0.030038126 0.022514837 -0.014226276 -0.067500204 -0.023864007 0.014080074
0.023970589 0.023586508 0.01918459 0.057387892 -0.020613937 0.090193465 -0.01329261 -0.0024314933
0.03430088 -0.12709258 -0.08898949 0.06498519 0.025097331 0.0054112733 0.058097515 0.042261623
0.026831929 -0.079505734 -0.0047140596 0.013576657 0.020452682 -0.013591465 -0.033609573 0.027939985
0.0049350997 -0.0011131074 -0.0487392 0.019787269 0.07222427 -0.09718564 0.01381281 -0.10220264
00000000: cf47 103d 2ee7 1f3d 8afb 073d 04c1 933d
00000010: ae75 a93c c9c2 c93a 36fa a63c f003 113d
00000020: 427b dcbc 86ab c63c 0aea 433d 2c75 d53d
00000030: 80c7 a73c 02ee 39bd 5db8 a3bd e527 54bd
00000040: 637a 83bc e9bf ee3b 59c6 92bd 9bd1 2ebd
00000050: e307 9a3d 14eb b03d 8dc3 b33d dc8c a6bd
00000060: 0841 5abc d40c dfba 90b7 213b 15e3 813b
00000070: 0ad9 d83b 2f07 1abd c486 373c 8070 a1bc
00000080: 5301 f33d bcaf aabd debd 0ebd e3aa c2bd
00000090: 7b9b 32bd 2f85 1ebc db36 4abd b6ed a33d
000000a0: 416b 223d f99f b83d fb08 3bbd 26a7 88bc
000000b0: 17d6 3e3d 1a86 aebc ad88 923b 8d62 a1bb
000000c0: 9db2 923c 2c48 503d 646c a1bb afb1 973c
000000d0: f670 60bd 5a3b fb3c b5f5 2abd 0b8e 0e3d
000000e0: dc3f 643d 6485 9bbc a946 83bd 4d4d 823d
000000f0: 1299 553d 3736 c33d 7e2d b73b 7e70 93bd
00000100: 10dd 8dbd e96c acbd e6b3 5cbd ddd9 7bbc
00000110: 214e 89bc e46c 1fbd 56a8 07be 55d2 70bd
00000120: 695a 8e3c 71a7 9abc b0ee d6ba 725e e83c
00000130: 1cbc 37bd d94b c73d 8223 d23c a2f2 37bd
00000140: c991 b13c 76a4 daba 83f4 2d3e 94f0 2d3d
00000150: 626a 16bd 78ef 1bbd 0204 143d c303 ec3b
00000160: 22f1 aa3d 701a e9bb f6ab 0d3c 2184 aebd
00000170: 2a2d d9bc c905 0a3c 75eb 8abd 981c 3b3d
00000180: 458e ec3b 4c09 cd3c 56bf 57bd 8301 e93c
00000190: 57b4 ccbd 8758 a33d ccc4 af3c 034b f6bc
000001a0: 3d65 74bc 22ba 96bd 9946 083d 9a8a a1bd
000001b0: 5558 a3bd 88ea ab3d cd07 3ebd b55d 1ebd
000001c0: 839a 9dbd 76a9 0ebd dbdf d73c 488d 80bd
000001d0: 5ad6 94bc 46e5 683c ba45 033d c6ee 3abc
000001e0: 9aaf b7bd a943 b83c dafc 453d 2a0b e63b
000001f0: 104d 0f3d 0787 d73d 6137 ddbd b4bd 803d
00000200: 7cbb c7bd 4ce3 96bc 2971 98bd 0cb3 9c3b
00000210: cf5a 02bd 89e0 9c3d 558c b1bd 8c86 993d
00000220: 08d6 003d 8ede db3d 37a9 1f3d e49d 203d
00000230: e8fe 59bd d0b7 bebb 6b68 013d 6d0c 38bc
00000240: cc59 19bc 98bf e0bb b2e4 14bc e4f6 e0bc
00000250: 40ab acbd 14b4 8cbd 2fe8 16bc 7f9d e43c
00000260: b18b 3abd 11dd f4bb ae1c 6bbc 9e96 b2bd
00000270: 2eef 613c ca67 a53a d2d4 22bd 996a 123c
00000280: d7ea 83bd 6848 003e 9256 9d3d 671b 953d
00000290: 4927 dd3d da81 90bc 29ca 9fbb 41a5 acbd
000002a0: 18dd d5bd 242e bf3d c270 273d 07c0 463c
000002b0: 370f 823c 6ef5 5abd 400c e33d 6937 7bbc
000002c0: f67e a03b 8a03 d03d 7639 2e3d 06f7 a43c
000002d0: 70b0 253c cf41 a0bc 5a9d 863b c9c2 a3bc
000002e0: 495c e6bd fc38 57bd b3d8 353e e290 373d
000002f0: a6dd b2bc f848 dd3a b858 573d f823 debc
00000300: c4ca 6dbd 6621 833d 841c 0d3d d414 973c
00000310: 80aa c83c 1cd4 65bd e873 74bd 116a 66bd
00000320: 3d69 f1bc bac1 07bb 739e bb3c 3121 adbd
00000330: 1682 dfbb 559d 483d b015 693c 5040 fc3b
00000340: 9457 33bd 388f 0fbc c521 b23b ca0f 6c3d
00000350: 02ce 4dbd ce4f 4f3d ef82 683d 89c8 34bd
00000360: 4cea 37bd 0ddd 6ebd 8412 f63c 0971 b83c
00000370: 5415 69bc 8c3d 8abd 737e c3bc 1cb0 663c
00000380: f85d c43c 7e38 c13c 0029 9d3c 910f 6b3d
00000390: 8fde a8bc 5ab7 b83d 3fc9 59bc b059 1fbb
000003a0: 147f 0c3d 8f24 02be 1f40 b6bd f516 853d
000003b0: eb98 cd3c 0d51 b13b a9f7 6d3d 861a 2d3d
000003c0: a2ce db3c e7d3 a2bd 6678 9abb a070 5e3c
000003d0: 628c a73c bcae 5ebc 31aa 09bd 65e2 e43c
000003e0: 9eb6 a13b b0e5 91ba c1a2 47bd e918 a23c
000003f0: 51ea 933d 4409 c7bd 204f 623c 9e4f d1bd

fc.bias f4 [10]
-0.17351754 -0.23444793 -0.010308979 0.20208965 -0.06215532 0.19723299 -0.055898093 0.038135834
0.15148531 0.094959974
00000000: 95ae 31be 1e13 70be fee6 28bc 97f0 4e3e
00000010: 9496 7ebd 72f7 493e 66f5 64bd 5234 1c3d
00000020: f71e 1b3e 607a c23d
